…
/root/anaconda3/envs/bbj/lib/python3.10/site-packages/torch/utils/cpp_extension.py:1964: UserWarning: TORCH_CUDA_ARCH_LIST is not set, all archs for visible cards are included for compilation. 
If this is not desired, please set os.environ['TORCH_CUDA_ARCH_LIST'].
  warnings.warn(
Building extension module fused_adam...
Allowing ninja to set a default number of workers... (overridable by setting the environment variable MAX_JOBS=N)
ninja: no work to do.
Loading extension module fused_adam...
Time to load fused_adam op: 0.05319833755493164 seconds
[2025-06-19 19:18:43,878] [INFO] [config.py:655:__init__] Config mesh_device None world_size = 8
Actor(
  (model): DeepseekV2ForCausalLM(
    (model): DeepseekV2Model(
      (embed_tokens): Embedding(102400, 2048)
      (layers): ModuleList(
        (0): DeepseekV2DecoderLayer(
          (self_attn): DeepseekV2FlashAttention2(
            (q_proj): Linear(in_features=2048, out_features=3072, bias=False)
            (kv_a_proj_with_mqa): Linear(in_features=2048, out_features=576, bias=False)
            (kv_a_layernorm): DeepseekV2RMSNorm()
            (kv_b_proj): Linear(in_features=512, out_features=4096, bias=False)
            (o_proj): Linear(in_features=2048, out_features=2048, bias=False)
            (rotary_emb): DeepseekV2YarnRotaryEmbedding()
          )
          (mlp): DeepseekV2MLP(
            (gate_proj): Linear(in_features=2048, out_features=10944, bias=False)
            (up_proj): Linear(in_features=2048, out_features=10944, bias=False)
            (down_proj): Linear(in_features=10944, out_features=2048, bias=False)
            (act_fn): SiLU()
          )
          (input_layernorm): DeepseekV2RMSNorm()
          (post_attention_layernorm): DeepseekV2RMSNorm()
        )
        (1-26): 26 x DeepseekV2DecoderLayer(
          (self_attn): DeepseekV2FlashAttention2(
            (q_proj): Linear(in_features=2048, out_features=3072, bias=False)
            (kv_a_proj_with_mqa): Linear(in_features=2048, out_features=576, bias=False)
            (kv_a_layernorm): DeepseekV2RMSNorm()
            (kv_b_proj): Linear(in_features=512, out_features=4096, bias=False)
            (o_proj): Linear(in_features=2048, out_features=2048, bias=False)
            (rotary_emb): DeepseekV2YarnRotaryEmbedding()
          )
          (mlp): DeepseekV2MoE(
            (experts): ModuleList(
              (0-63): 64 x DeepseekV2MLP(
                (gate_proj): Linear(in_features=2048, out_features=1408, bias=False)
                (up_proj): Linear(in_features=2048, out_features=1408, bias=False)
                (down_proj): Linear(in_features=1408, out_features=2048, bias=False)
                (act_fn): SiLU()
              )
            )
            (gate): MoEGate()
            (shared_experts): DeepseekV2MLP(
              (gate_proj): Linear(in_features=2048, out_features=2816, bias=False)
              (up_proj): Linear(in_features=2048, out_features=2816, bias=False)
              (down_proj): Linear(in_features=2816, out_features=2048, bias=False)
              (act_fn): SiLU()
            )
          )
          (input_layernorm): DeepseekV2RMSNorm()
          (post_attention_layernorm): DeepseekV2RMSNorm()
        )
      )
      (norm): DeepseekV2RMSNorm()
    )
    (lm_head): Linear(in_features=2048, out_features=102400, bias=False)
  )
)
Using /root/.cache/torch_extensions/py310_cu124 as PyTorch extensions root...
Detected CUDA files, patching ldflags
Emitting ninja build file /root/.cache/torch_extensions/py310_cu124/fused_adam/build.ninja...
/root/anaconda3/envs/bbj/lib/python3.10/site-packages/torch/utils/cpp_extension.py:1964: UserWarning: TORCH_CUDA_ARCH_LIST is not set, all archs for visible cards are included for compilation. 
…
